Model: "sequential"
_________________________________________________________________
Layer (type)                 Output Shape              Param #   
=================================================================
conv2d (Conv2D)              (None, 277, 277, 32)      896       
_________________________________________________________________
activation (Activation)      (None, 277, 277, 32)      0         
_________________________________________________________________
max_pooling2d (MaxPooling2D) (None, 138, 138, 32)      0         
_________________________________________________________________
conv2d_1 (Conv2D)            (None, 138, 138, 50)      40050     
_________________________________________________________________
activation_1 (Activation)    (None, 138, 138, 50)      0         
_________________________________________________________________
max_pooling2d_1 (MaxPooling2 (None, 69, 69, 50)        0         
_________________________________________________________________
flatten (Flatten)            (None, 238050)            0         
_________________________________________________________________
dense (Dense)                (None, 500)               119025500 
_________________________________________________________________
activation_2 (Activation)    (None, 500)               0         
_________________________________________________________________
dense_1 (Dense)              (None, 3)                 1503      
_________________________________________________________________
activation_3 (Activation)    (None, 3)                 0         
=================================================================
Total params: 119,067,949
Trainable params: 119,067,949
Non-trainable params: 0
_________________________________________________________________
